PyTorch/Classification/BinaryClassification/binary_classification.pth (torch, 3412 bytes, 5 tensors)

layer_stack.0.weight f4 [10, 2]
0	0x3f4e0b5c	0.80486083
1	0x3ff4bf32	1.9120848
2	0xc011d82d	-2.2788193
3	0xbf9609ed	-1.1721779
4	0xbf24d5dc	-0.64388824
5	0x3fc3bc35	1.5291811
6	0xbfadc142	-1.3574603
7	0x3f9e2990	1.2356434
8	0x3e232052	0.15930298
9	0x3ff488f0	1.910429
10	0x3ed497ad	0.4152197
11	0x3dccf92a	0.10008462
12	0x40165897	2.349157
13	0xbf6bdc72	-0.9213325
14	0xbe04bc74	-0.12962514
15	0xbe7e15b0	-0.2481296
16	0x3efbe305	0.4919664
17	0xbd158ce3	-0.036511313
18	0xbf1000b8	-0.56251097
19	0x3f8eeb1e	1.1165502

layer_stack.0.bias f4 [10]
0	0xbe99a1f2	-0.30006367
1	0x3e2901f2	0.16504648
2	0xbe05679b	-0.13027804
3	0xbece850b	-0.4033588
4	0xbdd9c17f	-0.106326096
5	0x3ed65507	0.41861746
6	0x3e8f6af6	0.28011292
7	0xbefe2a1c	-0.49641502
8	0x3ef8be96	0.48582906
9	0x400d7c75	2.2107213

layer_stack.2.weight f4 [10, 10]
0	0x3e1ca202	0.15296176
1	0x3f2fad70	0.6862402
2	0x3f1bdf96	0.6088804
3	0x3ef63d9b	0.48093876
4	0x3e236f5a	0.15960446
5	0xbd178dae	-0.03700035
6	0x3f2fffd5	0.68749744
7	0x3e18052a	0.1484572
8	0x3e3593e1	0.17732193
9	0xbe9f902d	-0.31164685
10	0xbe09f504	-0.13472372
11	0x3d249789	0.040183578
12	0xbd1fff2f	-0.03906172
13	0x39e9db77	0.00044604737
14	0x3d0bb4b0	0.034107864
15	0xbd1762d8	-0.0369595
16	0xbde5dc53	-0.11223664
17	0xbe83ac74	-0.2571751
18	0x3e8cd436	0.27505654
19	0x3e028f21	0.12749912
20	0xbcc83f9a	-0.02444439
21	0x3f59f4ea	0.85139334
22	0x3e4cb461	0.19990684
23	0x3f27ddb7	0.65572685
24	0x3daf9fbc	0.08575389
25	0xbe6bbc43	-0.23021035
26	0xbea45f2b	-0.32103857
27	0xbe84e791	-0.2595792
28	0xbec50118	-0.38477397
29	0xbe4742bc	-0.19459051
30	0x3d1fba70	0.03899616
31	0xbe32929b	-0.17438738
32	0x3e6ae042	0.2293711
33	0xbc6e8e60	-0.014560312
34	0x3e7d6b5a	0.24747983
35	0xbe65e653	-0.22451143
36	0xbe17c7ce	-0.14822313
37	0x3ea0df01	0.31420138
38	0x3dc5a398	0.09650344
39	0xbe94b1ef	-0.29042003
40	0xbdb75fb8	-0.08953804
41	0x3e16e625	0.1473623
42	0xbe1c9cd9	-0.15294208
43	0xbe5da4f4	-0.21644956
44	0x3e861433	0.26187286
45	0xbdc003a2	-0.09375693
46	0xbe24c6a1	-0.16091396
47	0x3e891e6f	0.2678103
48	0xbe300282	-0.17188457
49	0x3ccf5327	0.025308205
50	0x3e6e02be	0.23243234
51	0xbe0cd45a	-0.1375288
52	0x3d5090b0	0.050919235
53	0xbe581078	-0.21100032
54	0x3da5bc92	0.080926076
55	0x3e1b1169	0.1514336
56	0x3d80a047	0.062805705
57	0x3de0695c	0.10957596
58	0x3dcc9d03	0.09990885
59	0xbe244faf	-0.16046022
60	0x3e37fa27	0.1796652
61	0x3ed796ea	0.42107326
62	0x3f2d623d	0.67728025
63	0x3eb46479	0.35232905
64	0x3ef59279	0.47963312
65	0xbe99a787	-0.30010626
66	0xbeaf317b	-0.34217438
67	0x3e46b082	0.1940327
68	0xbab438bd	-0.001374982
69	0x3db1ea61	0.08687282
70	0x3de4f37c	0.111792535
71	0x3e27df44	0.16393763
72	0xbe0a363d	-0.13497253
73	0x3e977a69	0.2958558
74	0x3defc802	0.1170807
75	0x3dd69721	0.10478044
76	0x3fbcfe74	1.4765153
77	0x3cf83d50	0.030302674
78	0x3eeec136	0.46631783
79	0xbf9439ea	-1.1580174
80	0xbfd8db24	-1.6941876
81	0xbfe73b2e	-1.8064935
82	0xbf91007f	-1.1328276
83	0xbfa58a40	-1.2932816
84	0xbfcbb14d	-1.5913483
85	0x3e7a5b1b	0.24448816
86	0xbfbc733c	-1.4722667
87	0x3db521d8	0.08844346
88	0x3ecb2d1f	0.39682862
89	0x3ffbf2bb	1.968345
90	0x3f9744b7	1.1817845
91	0x3fa5b1bf	1.2944869
92	0x3f1870eb	0.595473
93	0x3f42d21b	0.76101846
94	0x3f5e995b	0.8695275
95	0xbd06eee8	-0.032942683
96	0x3f5fa9e8	0.8736863
97	0x3e451ffa	0.1925048
98	0xbe8991e0	-0.26869106
99	0xbf4d40e4	-0.8017714

layer_stack.2.bias f4 [10]
0	0xbec8ed29	-0.3924344
1	0xbeba4119	-0.3637779
2	0x3d36881a	0.04456339
3	0xbe8258de	-0.25458425
4	0xbe9f734f	-0.3114266
5	0x3db96153	0.09051766
6	0x3b220aa2	0.0024725576
7	0xbf20dcb9	-0.62836796
8	0x3ff43c0d	1.9080826
9	0xbf02570e	-0.50914085

layer_stack.4.weight f4 [1, 10]
0	0xbf9866cc	-1.1906371
1	0x3e27ea2e	0.16397926
2	0xbf947946	-1.159951
3	0xbd0e0fd0	-0.03468305
4	0xbe5daa8b	-0.21647088
5	0xbe6f54b1	-0.23372151
6	0xbf75cb60	-0.9601345
7	0xbfff61c3	-1.995171
8	0x4093c3be	4.6176443
9	0xc01fa94b	-2.4947078
