PyTorch/Classification/binary_classification.pth (torch, 3412 bytes, 5 tensors)

layer_stack.0.weight f4 [10, 2]
-0.4547565 1.4408691 1.8295931 -0.11025736 1.0887092 1.3485011 -0.7803146 0.677387
-1.1572422 0.4989778 -0.69726646 1.1263897 -0.59757966 0.04033939 -1.1711545 -1.7739184
-2.151617 -0.17980681 -0.7765823 1.7115823
00000000: d8d5 e8be 666e b83f 1b30 ea3f 9cce e1bd
00000010: d35a 8b3f af9b ac3f b3c2 47bf 3c69 2d3f
00000020: 8320 94bf 057a ff3e 0e80 32bf 8a2d 903f
00000030: fbfa 18bf eb3a 253d 64e8 95bf c20f e3bf
00000040: 18b4 09c0 471f 38be 19ce 46bf 2115 db3f

layer_stack.0.bias f4 [10]
0.21909148 -0.42705107 0.01518141 1.0674391 -0.3120062 1.2483618 1.3904022 -0.0021357508
-0.4902972 -0.339076
00000000: 8459 603e 70a6 dabe 73bb 783c d8a1 883f
00000010: 47bf 9fbe 52ca 9f3f b3f8 b13f f4f7 0bbb
00000020: 3c08 fbbe 5f9b adbe

layer_stack.2.weight f4 [10, 10]
0.39567018 1.0636284 -0.28973496 -0.52059126 0.16222973 -0.8638004 -0.36430225 1.5279897
1.2129864 -0.05279447 -0.2487069 -0.4341751 -0.04466733 0.5456516 -0.21686895 0.79207265
1.0161134 -0.20015746 -0.4286266 -0.27386367 0.23554838 0.064188905 0.28545907 0.24718183
0.38324237 -0.12788753 0.004890647 -0.028355666 0.03684746 0.3345214 0.609485 0.9577763
1.1117185 -0.5236399 0.024753291 -0.18722372 -0.54924685 0.12213321 0.49495068 0.8279474
0.667353 0.26740602 0.70914894 0.22438554 0.7624849 0.082380615 -0.5758234 0.20783128
0.9123729 0.75581944 0.5713718 0.5074321 0.7853316 -0.353438 0.47696483 -0.41404572
-0.10226218 0.038134534 0.1914803 0.36683625 0.05519974 0.29188085 -0.16395587 -0.010497089
0.124865495 0.008656985 -0.25757837 0.28201884 0.47965106 0.18025342 0.59427553 -0.23135714
0.13263759 -0.38400576 0.81063914 0.14212582 -0.2124501 0.43603212 1.2624742 1.1307446
-0.113175206 0.84912646 0.3642863 -0.59457517 0.13779978 -0.91825897 -0.14638862 1.14972
0.16723973 -0.13774216 0.14339969 -0.16832966 -0.0810664 0.012972504 0.087141454 0.047329992
-0.22486883 -0.14666039 -0.28318578 -0.105259955
00000000: 4895 ca3e fa24 883f 2458 94be 7845 05bf
00000010: 8d1f 263e 0622 5dbf d385 babe 2b95 c33f
00000020: 2343 9b3f 043f 58bd 06ad 7ebe 334c debe
00000030: 17f5 36bd d3af 0b3f e512 5ebe 46c5 4a3f
00000040: 0110 823f 14f6 4cbe f274 dbbe dc37 8cbe
00000050: 9833 713e 7975 833d b127 923e 3c1d 7d3e
00000060: 5838 c43e f3f4 02be b841 a03b 244a e8bc
00000070: 5ded 163d 6446 ab3e 3507 1c3f d430 753f
00000080: cb4c 8e3f 440d 06bf 6ac7 ca3c 93b7 3fbe
00000090: 719b 0cbf fa20 fa3d 2d6a fd3e 5cf4 533f
000000a0: a5d7 2a3f 71e9 883e c98a 353f 53c5 653e
000000b0: 3632 433f 2bb7 a83d 2a69 13bf b9d1 543e
000000c0: 4591 693f 627d 413f 6c45 123f 12e7 013f
000000d0: 7e0b 493f d3f5 b4be bc34 f43e cdfd d3be
000000e0: d56e d1bd f532 1c3d 6913 443e f6d1 bb3e
000000f0: 1f19 623d 6871 953e 0ce4 27be fbfb 2bbc
00000100: 7bb9 ff3d 07d6 0d3c 50e1 83be c664 903e
00000110: d394 f53e 5a94 383e 7122 183f e3e8 6cbe
00000120: 26d2 073e 679c c4be 0c86 4f3f 6e89 113e
00000130: 858c 59be 9a3f df3e c198 a13f 3dbc 903f
00000140: 67c8 e7bd 5a60 593f bc83 ba3e 1436 18bf
00000150: 631b 0d3e 0513 6bbf e6e6 15be 062a 933f
00000160: e440 2b3e 480c 0dbe 5ed7 123e 9c5e 2cbe
00000170: 2406 a6bd a08a 543c 3877 b23d 18dd 413d
00000180: 0444 66be 242e 16be bafd 90be 8892 d7bd

layer_stack.2.bias f4 [10]
0.04068625 1.1055862 -0.29082686 -0.024418404 -0.46669334 -0.03473912 0.03300103 -1.0674379
-0.14969599 -0.119848385
00000000: a0a6 263d d983 8d3f 42e7 94be 1b09 c8bc
00000010: 6ef2 eebe 9c4a 0ebd 172c 073d cea1 88bf
00000020: e849 19be 1273 f5bd

layer_stack.4.weight f4 [1, 10]
-2.4287517 1.8766508 -0.48766097 -1.9470385 -1.8194637 -1.2245713 -0.5889848 -2.2477908
-1.7789198 -0.31086183
00000000: ab70 1bc0 1836 f03f b3ae f9be 8f38 f9bf
00000010: 30e4 e8bf c1be 9cbf b5c7 16bf cedb 0fc0
00000020: a5b3 e3bf 4829 9fbe
