PyTorch/Classification/multiclass_classification.pth (torch, 7856 bytes, 14 tensors)

layer_stack.0.weight f4 [10, 2]
000000 f4 25 32 3f dc e3 dd 3e 1f 5f 8e 3e 28 16 1e be
       0.6958916 0.43337905 0.27806947 -0.1543814
000010 ca 53 e2 3e a9 57 16 bd 2d 14 8c be 3f b0 d9 be
       0.4420455 -0.036704693 -0.27359143 -0.42517278
000020 b6 6a c5 3e 81 de 6b be 5d db f5 be 16 0f 26 3e
       0.38557976 -0.23034097 -0.48018923 0.16216692
000030 e5 3b ab be 8a 54 44 3f 0f 83 55 bf 59 74 8c be
       -0.33444133 0.76691496 -0.83403105 -0.27432516
000040 db 73 2e 3e 17 70 ca bd 20 73 29 bf 26 55 bd 3e
       0.17036383 -0.09884661 -0.6619129 0.36979026

layer_stack.0.bias f4 [10]
000000 74 26 e0 3e f9 eb 91 be 88 90 d2 3e 91 02 31 bf
       0.43779337 -0.28500345 0.41125894 -0.6914454
000010 1a 7b 2a be b5 22 0a bf c3 7c cc bc 4a f9 b6 3e
       -0.16648522 -0.5395921 -0.024961835 0.35737067
000020 a5 60 ca bd 1a 15 06 3f
       -0.09881715 0.5237595

layer_stack.2.weight f4 [10, 10]
000000 d5 cb 1f 3e 62 f8 1b 3e 0f e4 0c 3e a9 44 b3 3c
       0.156051 0.1523147 0.13758872 0.021883326
000010 de 7c fa bd 8f aa 3b 3e bf d5 96 3e ba 74 29 be
       -0.12230848 0.18326782 0.2945995 -0.16548434
000020 eb 23 3c be 43 2b dd b9 07 01 4e 3e 9e ea 80 3e
       -0.18373077 -0.00042184637 0.2011758 0.25179
000030 1f 68 19 3e c4 ae 87 be d0 66 0c be de 91 3a 3d
       0.14981125 -0.26500523 -0.13711095 0.045549266
000040 57 8e 92 bd 0c c9 ba 3e 66 0c 8d 3d 90 14 24 3e
       -0.071560554 0.36481512 0.068871304 0.16023469
000050 3a 6b 5e 3e af 49 6b be bc 90 56 bd 46 26 7c bd
       0.21720591 -0.22977327 -0.052384123 -0.061559938
000060 6c 80 39 3e 09 7a 4a be 27 36 82 3e 55 9b b4 bd
       0.18115395 -0.19773115 0.2543194 -0.0881869
000070 3c 05 9d bc 07 81 9b 3e 6b 11 91 be 77 6c 56 be
       -0.019167535 0.30371878 -0.283336 -0.20939814
000080 f5 9b 72 be a3 4b 38 be 47 69 33 be 81 92 9f 3e
       -0.23692305 -0.17997603 -0.17520629 0.3116646
000090 5e d3 ef bc 83 21 db 3e b0 5b 75 bc b5 7e 01 3e
       -0.029275592 0.42799005 -0.014975473 0.12645991
0000a0 50 0e e9 3e 32 e9 3e 3e 71 cc 49 be 12 9b ba 3e
       0.45518732 0.18643644 -0.19706894 0.36446434
0000b0 00 0a 4f be b6 b6 99 be 6a 37 75 bd cd 6c b4 3e
       -0.20218658 -0.3002221 -0.0598673 0.35239258
0000c0 08 31 7f be 9f 9d fd bd 08 84 17 bd 48 d9 f7 3c
       -0.24921048 -0.123835795 -0.03699115 0.030254975
0000d0 bc 09 39 be 92 e6 89 be f2 8a 65 be e1 57 9a be
       -0.1807012 -0.26933724 -0.22416285 -0.3014517
0000e0 0b 97 9a 3e 43 25 62 3d ce 76 a1 3d 74 06 7e be
       0.30193362 0.055211317 0.07883988 -0.24807149
0000f0 25 d7 8c be b7 60 91 3e 4c db af 3d f2 38 70 ba
       -0.27507892 0.283941 0.085867494 -0.0009163759
000100 69 a5 7e 3e 14 7f bb 3e 79 c8 9a 3d 55 0d dc 3e
       0.24867786 0.3662039 0.075577684 0.42978922
000110 a0 61 17 3e db 77 a2 3c 51 59 57 3d 5b 8f 8e bd
       0.14783335 0.019832542 0.052575413 -0.06960937
000120 ab 4c a7 3c 6c d3 36 be 72 19 85 be 53 e1 8d 3e
       0.0204223 -0.17854089 -0.25995976 0.2771097
000130 6d 7e 8f 3e 54 47 bd 3c 3d 1a 4a be f7 31 04 be
       0.28026143 0.023105301 -0.19736572 -0.12909685
000140 8f 9a 60 be 28 cd a8 bc cd 56 1d bd e7 15 93 be
       -0.2193396 -0.020605639 -0.038412858 -0.28727648
000150 9f 39 c9 bd f7 42 0b 3d 4c 58 9e be 72 38 93 be
       -0.098254435 0.03399941 -0.3092674 -0.28754002
000160 84 e1 81 be b1 47 61 be 94 2d c7 3d 8f 42 f5 3c
       -0.25367367 -0.22000004 0.0972549 0.029938964
000170 7e 8a cf bd 4a 41 25 3e 75 4e 8f bc 83 f6 c6 3e
       -0.10133837 0.16138187 -0.017493466 0.3885995
000180 25 72 19 bf 3a 15 04 3f 87 51 ad bd 70 52 4a 3e
       -0.59939796 0.5159489 -0.08462816 0.1975801

layer_stack.2.bias f4 [10]
000000 c5 f7 26 bd b9 40 50 3e ca bf 6b bd 4d ea 74 3e
       -0.040763635 0.2033719 -0.05755595 0.23917504
000010 be 7d ac 3e 3d ea d2 bd 7f 5b 8e 3e 3c e9 30 be
       0.33689684 -0.10298584 0.2780418 -0.17276472
000020 c1 b3 87 3d 50 85 31 be
       0.06626082 -0.17336011

layer_stack.4.weight f4 [10, 10]
000000 57 8f 7d bd ce 8d 93 3e 6e 02 79 be dd 8a 19 be
       -0.061904278 0.28819126 -0.24317333 -0.14994378
000010 9f ea 5c be e8 64 8c be a4 23 a6 bd 47 cf 03 3d
       -0.21573876 -0.27420735 -0.08112267 0.032180097
000020 65 94 3f be ae 6a 99 be 26 dd 6a be 32 29 01 bc
       -0.18708952 -0.29964203 -0.22935924 -0.007883357
000030 35 12 da bd 5c 04 ef 3c e9 89 8e bd f2 29 83 3c
       -0.10648004 0.029176883 -0.06959898 0.016011212
000040 82 af e0 3e da 89 56 3e e2 08 9c 3d a0 1b cc 3e
       0.43883902 0.20951024 0.07618882 0.39864826
000050 da 30 4f bc 76 8f ba 3e 34 b1 33 3e 04 57 80 3d
       -0.012645924 0.36437577 0.17548066 0.06266597
000060 cc d0 23 be cf 95 58 3e ef 39 f7 3d 2f 24 a7 3e
       -0.15997618 0.21150897 0.12071597 0.32644793
000070 82 a8 9b 3e 6d e4 93 be 3d 12 58 3d dd 73 b6 3e
       0.30402 -0.28885213 0.05275177 0.35635272
000080 74 00 5e bc d4 a6 33 3e 8d b3 19 3f 98 34 aa bd
       -0.013549913 0.17544109 0.600396 -0.08310813
000090 b2 d2 80 3c 43 24 3d 3d 5d 9e 6d bd 42 37 e7 3e
       0.015725467 0.04617716 -0.058012355 0.45159346
0000a0 ea 2d 48 3e b7 07 d0 3c 02 5e c2 be e5 d2 8e 3e
       0.19548765 0.025394304 -0.37962347 0.27895275
0000b0 6b e4 33 3c fd e6 84 3e fa 0f da 3e a7 0c 97 be
       0.010979752 0.2595748 0.42590314 -0.2950184
0000c0 21 04 44 3e b7 d7 0c 3f 69 d8 8e be 83 90 7e 3e
       0.191422 0.55016655 -0.27899483 0.24859814
0000d0 77 83 91 be 4d 9c ae 3d 9b 57 62 be 06 a9 53 be
       -0.28420612 0.08525906 -0.22103731 -0.20669946
0000e0 6c b0 d6 bb 5a e7 ac 3d d0 bc ec 3c 6a 64 c3 3e
       -0.006551793 0.08442564 0.028898627 0.38162547
0000f0 d1 88 e5 3c 77 c8 48 3e d4 0b 0c be 3c a5 db 3d
       0.02801934 0.19607721 -0.13676387 0.10724875
000100 45 83 bc be b1 66 5f be a3 fc 51 3d f5 c7 8e 3e
       -0.368189 -0.21816517 0.051266324 0.2788693
000110 7f 20 50 be 27 33 b1 3e 40 6e a2 be 94 fd cc 3d
       -0.20324896 0.3460934 -0.3172474 0.10009304
000120 d8 3f 78 bd 85 6c 8c bd d4 da 04 be 66 fb 5e 3e
       -0.06060776 -0.06856636 -0.12974101 0.21775588
000130 44 b1 65 bd 62 de 0f 3e e4 61 98 be a1 1e 7e 3b
       -0.056077257 0.14049676 -0.29762185 0.003877558
000140 a5 46 33 be 65 67 a7 3c 2a cb 69 be a9 32 8c bd
       -0.17507418 0.020435045 -0.22831407 -0.068456
000150 cb ea c4 3d 13 f2 8e 3e 19 ba 90 3e e8 7e dd bc
       0.09615096 0.27919063 0.2826698 -0.027038053
000160 bb 4a 8e bd 34 a3 a9 3e 9f 01 77 3d 9d 06 0a 3e
       -0.069478475 0.33132327 0.06030428 0.13479085
000170 b0 c2 4c 3d bc 65 b1 bd 36 5f 99 be 54 5c 29 3e
       0.049990356 -0.086619824 -0.29955453 0.16539127
000180 a4 b9 46 3e 9b f8 f2 3c 4b c2 9e 3e 97 7d 2b be
       0.19406754 0.02965956 0.3100761 -0.16747127

layer_stack.4.bias f4 [10]
000000 7e d5 33 3e 90 72 3a 3e 52 8a 88 3e e7 0d de 3e
       0.1756191 0.18207765 0.2666803 0.43369982
000010 66 d9 35 3d e1 fb bf be 95 88 14 3e e8 5f 92 3e
       0.04439678 -0.37496856 0.14505227 0.28588796
000020 36 d3 0c 3e dd b3 2d be
       0.13752446 -0.16963144

layer_stack.6.weight f4 [10, 10]
000000 02 27 21 be a6 6f 3b 3c 55 ce 85 bc 16 07 88 3e
       -0.15737537 0.011440193 -0.016333738 0.26567906
000010 56 b2 15 3e 2b 62 f3 bd 39 b6 34 3c 20 e2 0f bd
       0.14618811 -0.118839584 0.011029773 -0.03512776
000020 83 fc 20 3e 52 db fc 3d e2 d6 60 be 2d 9f 0e 3e
       0.15721326 0.123465195 -0.21956971 0.13927908
000030 2c d9 7c be f8 0d 0e 3f 98 e5 cc 3e c8 0d 1b be
       -0.2469222 0.55490065 0.40018916 -0.15141976
000040 be 11 e6 bd 96 d3 89 bc 16 8d 04 3e 2e 54 5e bd
       -0.11233853 -0.016824525 0.12944445 -0.0542795
000050 3b 48 92 be e1 a5 93 3e 94 e0 03 be 77 6a 33 3e
       -0.28570732 0.28837493 -0.12878639 0.17521082
000060 e1 b0 6c be f9 49 77 3d 7f bf bf 3d 6d 7d 0c be
       -0.23114349 0.06037328 0.09362697 -0.13719721
000070 59 30 46 3c 57 93 94 3e 9c c5 25 3c 44 e4 97 be
       0.012096488 0.2901866 0.0101179145 -0.2966634
000080 80 15 e1 bd 31 d3 7d be 78 3a 0a be 39 35 07 bd
       -0.10990429 -0.24787594 -0.13498867 -0.03300974
000090 76 7a 9b 3d b0 7e ce bd b2 ba 62 be 22 30 6c bd
       0.07591717 -0.100827575 -0.22141531 -0.05766309
0000a0 da 62 23 3d f7 07 fb bd 6a ef 1c be 99 c8 89 be
       0.039889194 -0.122573785 -0.15325704 -0.26910856
0000b0 17 7a 0d 3e 1a b8 61 3e 7d 05 fa bd 6a f2 82 be
       0.13816105 0.22042885 -0.12208078 -0.25575572
0000c0 75 f7 a9 bd 89 98 da 3c e7 14 6b bc d2 f9 e5 3e
       -0.08299152 0.026684063 -0.014348245 0.4491716
0000d0 55 c1 ad be 3e 66 31 3e a5 40 1e 3f 9e 0a 07 3f
       -0.33936563 0.17324159 0.6181739 0.52750576
0000e0 ee 5e b2 3e 58 7f 7f 3e da 67 59 3e 13 d8 1f 3e
       0.3483805 0.24950922 0.21231022 0.1560977
0000f0 63 31 8d 3e 67 9a d3 3d bd 07 29 be 61 ab 0b bd
       0.27576742 0.10332184 -0.16506858 -0.034098987
000100 de 58 db 3c 69 6a 21 be 2d cc bf 3d 11 f6 c9 bd
       0.026775774 -0.15763249 0.09365115 -0.098613866
000110 db 5e 3d be fc 81 6e 3e ab 27 a8 bd 22 fb 63 be
       -0.18493216 0.23291773 -0.08210691 -0.22263768
000120 1a 62 2f bc 73 7f 01 3f 64 04 29 be 31 34 ba be
       -0.010704542 0.505851 -0.16505581 -0.36367944
000130 78 a2 c1 be 2d 60 84 be 4f 43 9b 3d 08 12 5d 3e
       -0.37819266 -0.25854626 0.075811975 0.2158891
000140 45 43 82 be f2 35 78 3c a8 17 16 be 12 ce 8e 3d
       -0.25441948 0.01514958 -0.14657462 0.069728985
000150 89 17 12 bd b2 bc df bd f2 76 c6 bd dc ed 2c be
       -0.035666976 -0.10924663 -0.09690656 -0.16887611
000160 f3 47 bc 3b 24 38 8c 3d 2e 7d 07 bd 33 f7 51 bd
       0.0057458817 0.068466455 -0.033078365 -0.05126114
000170 fb 32 3b 3e a0 5c bc 3e cb 04 86 be b6 97 52 3d
       0.18281166 0.36789417 -0.26175532 0.051414214
000180 84 2a 6c 3d df 4e e7 3d 8f 09 3d be 7a ae e5 3c
       0.057657734 0.1129434 -0.18460678 0.028037298

layer_stack.6.bias f4 [10]
000000 01 69 89 be df 3a d3 3e f1 11 ef bd 6a 3c 1d be
       -0.26837924 0.41255853 -0.11673344 -0.15355077
000010 43 e6 0c 3e 04 c4 95 bd 3b ec 99 3c a8 80 2f 3f
       0.13759713 -0.07312778 0.018789401 0.6855569
000020 1b c4 c7 bd b2 41 27 bd
       -0.09754201 -0.040834136

layer_stack.8.weight f4 [10, 10]
000000 fa 7e 8e 3e 99 23 bb 3e 1e 6b f1 3d 1e 2f cb 3d
       0.2783125 0.36550596 0.11788009 0.09921096
000010 f6 ab 2b be 65 3f af be d0 18 9b 3e 4e af 94 3e
       -0.16764817 -0.34228054 0.30292368 0.29039997
000020 76 27 cd 3d dc ea 15 3d 37 58 28 be 07 4e 37 3e
       0.10017292 0.036600932 -0.16439901 0.17900859
000030 da af 0a 3e 29 dc 32 3e 3a 56 3d 3e 7f 7e c1 3e
       0.13543645 0.17466797 0.18489924 0.3779182
000040 39 8a 39 3c 5e 28 28 be 68 90 86 be 41 34 c7 bd
       0.011324459 -0.16421649 -0.26282048 -0.097267635
000050 2a 2c 96 be 62 71 f3 3e 74 ba be bd 37 99 1b 3e
       -0.2933057 0.47547442 -0.09312907 0.15195166
000060 d1 f6 91 3e 13 a1 0d be 72 44 59 3b 55 00 22 3f
       0.28508618 -0.13830976 0.003315237 0.63281757
000070 9c c7 b3 bd ca fa 86 3e 97 ed 69 3e 87 2e 0b 3f
       -0.08778307 0.26363212 0.2284454 0.5436787
000080 f9 c5 c3 3d 3e df f2 bd c0 e2 5d 3e 99 c0 42 3f
       0.09559245 -0.11858986 0.2166853 0.7607513
000090 28 38 87 3e a2 df b4 be da db 38 be 2f e8 a4 be
       0.2641003 -0.35326868 -0.18052617 -0.32208392
0000a0 6b de 68 3e 17 ea df 3d 84 43 ca 3d fd e5 ed 3b
       0.22741096 0.10933321 0.09876159 0.0072600828
0000b0 81 02 4a bd 3d b2 99 be 63 a9 98 3e f0 3b fe bd
       -0.049318794 -0.30018798 0.29816732 -0.12413776
0000c0 79 3c 1d bc ef 58 7e 3b 91 4c 34 3d 14 29 03 be
       -0.009596937 0.0038810333 0.044018332 -0.12808639
0000d0 47 90 3c be 0f c0 81 be 0b 3e 55 be 50 4b 25 bd
       -0.18414412 -0.25341842 -0.20824449 -0.040355027
0000e0 5f 52 5a bd ae 8f 8c 3e cc 76 ad 3d 3c 9a 6c 3e
       -0.05330121 0.2745337 0.08469924 0.2310571
0000f0 e8 52 a0 3e d6 ca 10 bd 4f b2 87 be fa 75 82 be
       0.31313252 -0.03534969 -0.26503226 -0.25480634
000100 9d e2 4f be fd dd 69 be 55 6f 3e 3e 4f c1 90 bc
       -0.2030129 -0.22838588 0.18597157 -0.017670302
000110 e6 b5 82 be 58 1b 07 be 80 2b 79 be b1 72 9e bc
       -0.25529402 -0.13194025 -0.24333 -0.019341798
000120 42 2b 0e 3d 96 1f 0e 3d 9c 74 91 3e a1 90 5c be
       0.034709223 0.03469809 0.28409278 -0.21539547
000130 54 57 95 bd 95 a0 89 3e ca 26 ea 3d e2 1f 03 3d
       -0.07292047 0.26880327 0.1143318 0.032012828
000140 95 18 4d 3e 18 01 8e be d2 b4 5f 3e c6 bb 4a 3d
       0.20028909 -0.2773521 0.21846321 0.04949548
000150 c7 08 70 be 33 5d 06 3d bb bd 06 3d f1 db 10 be
       -0.23440848 0.032803725 0.032895785 -0.14146401
000160 34 17 91 be 0d 41 76 3e d8 c9 a5 3e 3f 3c 51 3e
       -0.28338015 0.24048252 0.32380557 0.20433138
000170 a2 6f a2 3d c3 87 bb 3d b7 8b c8 3d 0f 14 9b be
       0.079314485 0.09156754 0.097922735 -0.3028874
000180 75 6f 70 be cc f1 08 3f a9 d6 df 3d e6 87 32 3e
       -0.23480017 0.5349395 0.10929615 0.17434654

layer_stack.8.bias f4 [10]
000000 be a0 24 3c 05 ed 86 be 5e 53 42 3f 32 af 52 3d
       0.01004809 -0.26352707 0.7590846 0.05143661
000010 75 f3 47 3c f3 bb a0 be 1c 9c a3 bd ce 46 6c 3e
       0.012204041 -0.31393394 -0.0798876 0.23073885
000020 e9 cb 78 be 2f 3e 43 3f
       -0.24296536 0.7626676

layer_stack.10.weight f4 [10, 10]
000000 56 f6 1d be 87 fe 66 3e 2e 8f 05 bf 16 b8 06 3f
       -0.15426001 0.22558032 -0.521716 0.5262464
000010 ab 0e 44 3e 20 24 9a bd 70 1b 64 3e 47 11 14 be
       0.1914622 -0.075264215 0.22276092 -0.14459716
000020 2b 8c 56 3e fc 1a 17 bf b8 61 89 3e 44 69 31 bb
       0.20951907 -0.5902555 0.26832366 -0.00270708
000030 a8 ae 34 3f b4 32 03 be 09 49 9c bd bd 7d 2d be
       0.70579004 -0.1281231 -0.07631118 -0.16942497
000040 92 33 15 3e 40 4c 19 ba 40 7b 58 3e 36 b6 1e 3f
       0.14570454 -0.0005847849 0.21140766 0.6199678
000050 16 60 7b be e9 ff 21 3e 9f f6 78 be e3 ca 52 3e
       -0.24548373 0.15820278 -0.24312828 0.20585208
000060 1b 2e d2 bd f5 2e 99 3e 70 c9 ab 3d a9 4a f9 bc
       -0.102627 0.29918638 0.083880305 -0.030431109
000070 04 23 13 be 41 d6 ce be 7d 62 45 bd 85 df bc 3d
       -0.14368826 -0.40397838 -0.04818963 0.092223205
000080 9f 29 32 3e 07 6c 1e bd 61 2e 3b be ce de 6a be
       0.1739869 -0.03867724 -0.18279411 -0.22936556
000090 e9 08 aa bd 77 4f c0 3d c8 77 6b 3e da 9d d0 bd
       -0.08302481 0.09390157 0.22994912 -0.10186358
0000a0 78 de c3 bd f2 90 95 3e 49 43 6c 3e 91 ba 0e 3f
       -0.09563917 0.29212147 0.23072542 0.5575343
0000b0 b0 e5 bc 3d 8d 32 2c be c7 1b 61 be 15 e0 d7 be
       0.09223497 -0.16816159 -0.21983252 -0.4216315
0000c0 76 46 30 be ee 09 70 be 2b 94 52 be f2 0a c9 3e
       -0.17214379 -0.23441288 -0.20564334 0.39266163
0000d0 62 8a 0f bf 38 d4 79 3e 2d 52 3c 3d e5 ef 3f be
       -0.5607053 0.24397361 0.045976806 -0.18743856
0000e0 08 07 25 be 29 01 35 be da ca 5d bd d3 d4 84 be
       -0.16115963 -0.17676224 -0.054148532 -0.25943622
0000f0 80 ea 75 bd 95 98 6c be 0b b3 33 be a3 fa 59 3e
       -0.06003809 -0.2310508 -0.17548768 0.21287017
000100 b2 74 dd bc 0a 5b fb bc 47 0f e1 bd 4f e5 aa 3e
       -0.027033184 -0.03068306 -0.10989242 0.33378074
000110 ac e5 9a be 19 a1 3a 3e 20 a2 5f 3e af 9b 06 be
       -0.3025335 0.18225516 0.2183919 -0.13145326
000120 fd 26 ae 3e 70 39 6d be ea 30 88 be cb 5b 2d bd
       0.3401412 -0.23166442 -0.26599818 -0.04232387
000130 d2 8a 4a be f1 e7 01 be 69 aa 8c be 14 f9 7b 3e
       -0.19779518 -0.12686135 -0.27473763 0.24606735
000140 b3 e6 1d be 6f cc 33 3a c4 04 37 3e 41 9f 19 3f
       -0.15420036 0.0006858771 0.17872912 0.6000863
000150 d7 d1 51 3d 34 ab 98 3d 4b c2 39 bd dd 83 8c be
       0.05122551 0.074545294 -0.045351308 -0.27444354
000160 8f 88 34 3e 30 59 07 be 7a 21 3a bd 69 54 f1 bd
       0.17630218 -0.13217616 -0.045442082 -0.11783678
000170 1a 3d 66 be 6c dd c2 bd 6d 00 2e be bd 02 31 be
       -0.22484246 -0.09514889 -0.1699235 -0.17286201
000180 2d c4 c4 bd 43 04 53 be 89 ee 19 3e d9 a7 3f be
       -0.0960773 -0.20607094 0.150324 -0.18716373

layer_stack.10.bias f4 [10]
000000 30 c2 8a 3d ed 5e 0d 3f 09 08 19 3e 0b a7 a3 be
       0.067753196 0.5522297 0.14944471 -0.3196338
000010 a7 f5 87 3e 79 4a 37 3d 91 95 ee 3d 7a 6a 0e be
       0.26554605 0.044748757 0.11649621 -0.13907805
000020 30 89 10 3e ad 70 a4 3e
       0.14114833 0.32117215

layer_stack.12.weight f4 [9, 10]
000000 05 7a 6a be a1 b5 3d bd 4d cf 03 be 18 bc 91 be
       -0.2289811 -0.046315793 -0.12872048 -0.28463817
000010 5e ad 80 3d 7c c5 51 3d d3 37 a6 bd 9f 6e 75 be
       0.06283067 0.051213726 -0.081161164 -0.2396798
000020 c2 33 4f be c5 1b 01 3e fd 15 1c 3f 7f 48 cd be
       -0.20234588 0.1260825 0.6097105 -0.40094373
000030 6e d9 67 3e 52 5d 80 be d5 34 30 3e bb 81 1b 3d
       0.22641537 -0.25071198 0.17207654 0.037965517
000040 5e 72 67 3e da 82 62 3e 6e 94 71 bd ea eb 9a 3e
       0.22602221 0.22120228 -0.058979444 0.30258113
000050 d8 28 b6 be c0 e6 0b 3f 11 39 ab 3b b4 c8 99 3e
       -0.35578036 0.5464897 0.0052253087 0.30035937
000060 a3 bc bd be c4 71 6a be c5 2a 75 3e 6a a0 91 3e
       -0.3705798 -0.2289496 0.23942097 0.284427
000070 b2 4f 06 bf 7f 78 40 bd ec b7 84 bd 69 d0 fd 3e
       -0.52465355 -0.046989914 -0.06480393 0.49573067
000080 20 c6 a7 be e2 92 28 3e c6 fd 01 bf f2 d7 b8 be
       -0.32768345 0.16462281 -0.5077785 -0.36102253
000090 29 f2 80 3e 2c 17 b1 3e be 47 ea be a0 14 84 be
       0.25184754 0.3458799 -0.4575786 -0.25796986
0000a0 91 a1 06 3f 9d 2c 59 be 20 e4 d9 3d 2b e7 3d 3e
       0.5259028 -0.21208425 0.106392145 0.18545215
0000b0 25 2b c4 3d 1d cf c5 3e aa 6f 32 3e 12 42 dd 3d
       0.09578542 0.38634577 0.17425409 0.108036175
0000c0 d6 af e1 bc e3 ea de bd 05 ee fa 3e 70 da 41 bf
       -0.027549665 -0.10884645 0.4900972 -0.75723934
0000d0 22 dc d3 3e 29 b7 70 be 71 91 89 3c 9f a4 0b 3f
       0.41378886 -0.2350737 0.016792985 0.54548067
0000e0 3d 43 25 3e da fc 1d bc 0f d3 f1 3c f9 11 d6 bd
       0.1613893 -0.009642804 0.029519586 -0.10452647
0000f0 f9 42 8c be 99 88 21 3e d8 86 d5 bd ec b3 5a be
       -0.27394846 0.15774764 -0.1042611 -0.21357697
000100 65 99 ca 3e 05 91 c0 be 19 77 8c 3e 3c ad 44 be
       0.39570156 -0.3761064 0.27434614 -0.19206709
000110 e0 21 61 3d b4 fc a6 bd af cd b3 3e 33 b3 0f be
       0.054963946 -0.08153668 0.35117862 -0.14033203
000120 c2 a2 b5 bc a0 15 38 be a8 10 8d 3e 52 5a 4a bd
       -0.022172336 -0.17977 0.2755177 -0.049402542
000130 19 14 8a 3e f5 53 21 be 58 86 33 3d f2 39 56 bd
       0.26968458 -0.15754683 0.043829292 -0.052301355
000140 b2 fb 5e 3d 07 04 fc 3b 0b f0 82 3e 70 5d 1e 3e
       0.054439254 0.00769091 0.25573763 0.15465331
000150 cc 54 22 3d 7e 8c 05 3d 00 5d 8b bd be ce 7f 3e
       0.03963165 0.032604687 -0.06804848 0.2498121
000160 e3 34 9e be ec ac 8b 3e
       -0.30899724 0.27280366

layer_stack.12.bias f4 [9]
000000 c6 79 6c bd d7 e7 9a 3c 13 60 0a 3f 76 09 2c 3f
       -0.05773332 0.018909378 0.5405285 0.67201936
000010 7e b1 17 be 7f e6 33 be 80 48 23 3e d1 13 0b be
       -0.14813802 -0.17568396 0.15945625 -0.13581778
000020 50 f5 9c be
       -0.3065591
